data.pth (torch, 17535 bytes, 6 tensors)

l1.weight f4 [8, 189]
0.4451584 -0.747728 1.2335502 0.01900061 1.544535 0.59944445 -0.30081838 0.5045455
0.9117491 -0.4383007 4.845716 0.10596073 1.9179232 0.071707584 -0.43003047 -0.8157324
-0.25336584 -0.9355681 -0.6464787 -0.43400314 0.0903141 1.8418907 4.509986 0.1810801
6.348022 2.5411618 -0.59464294 -0.8384926 -0.9057833 5.3233156 1.3208231 -1.1123991
-0.9350854 1.3012148 1.9021778 0.31753486 0.29479373 2.2392387 3.1593208 -0.9195753
1.8723453 1.8670822 1.2943174 2.339302 4.4148893 0.66984755 -0.89627486 0.4341454
0.912957 1.3062198 0.6702433 4.827012 0.014047433 0.026899904 1.1749547 -0.5105878
-0.7619987 -0.3563544 -0.14228985 -0.46896753 1.9189324 4.5749545 0.2844566 -0.19005601
-0.4283713 0.8096217 0.29754907 0.48938948 2.3527792 -0.34987622 -0.33989733 0.95115423
1.3497245 0.22782831 -0.59303087 1.2354852 5.3622746 -0.076906525 0.4293585 0.18226871
0.3199653 -0.019777505 0.013028098 0.35745093 0.20785284 2.996583 1.9873371 4.470358
1.910013 0.040509306 -0.69306076 -0.61302257 0.08398575 7.568462 -0.5495129 -0.33621803
1.3069326 -0.12016953 0.35507375 4.8517303 -0.4738218 1.3429087 6.922864 2.5587509
-0.19002624 -0.35547993 -0.4292792 -0.56992245 -1.7922958 0.06603411 0.32223663 2.7485507
0.14649485 1.2222705 1.453479 -0.7522124 0.046019677 3.261408 0.8153658 -1.116689
1.2955045 3.2834864 -0.67394114 1.443547 1.2942685 4.108776 0.53043467 2.3747284
0.09068262 -0.106416345 0.9341987 1.1830924 1.6158556 6.0420566 -0.122589834 2.6736028
1.3099581 0.46102452 -0.061860673 1.499894 4.019399 2.360847 -0.60462147 1.3778776
1.8268492 2.6132288 2.8098693 1.6562799 -0.6735243 1.3683829 0.6816277 0.33454403
0.7252747 1.318364 0.13276912 4.1912746 1.6132616 2.4740582 -0.6820387 7.7096295
-0.074258335 -0.27452433 3.6248844 -0.74584574 0.23816179 -0.15360308 0.3054812 -0.90747434
1.3760638 4.770651 -0.7730482 1.9095263 4.8699784 5.333138 -0.48957214 -0.08917709
-0.4565722 1.9331044 -1.0011362 0.13347673 -1.1922575 0.14088778 0.2269771 0.20140809
1.136932 1.2205421 1.5119526 0.12787111 0.010652314 -1.0886047 3.4980285 -0.036360547
-1.8991879 4.2355065 2.4967363 0.43604562 1.5653358 0.80997866 -1.0092357 0.9352317
1.9558548 3.0278828 2.0875356 -0.6425989 1.7824148 2.4462154 -0.49777243 -0.21320392
-0.63597786 1.9875469 1.8232362 4.391847 0.05244865 0.45599228 -0.15668668 -1.9508954
-0.10672049 4.4080973 -0.85983837 -0.83692265 2.45019 -0.60208577 -0.8542285 3.0435216
-0.32693046 0.20408875 2.489184 2.2810674 -1.0657187 1.8234682 1.8480074 -0.89942217
0.9237154 2.1639838 2.4671602 1.8784603 6.183463 0.91654176 0.65339625 2.4961336
-0.40363035 0.15234545 0.2225071 -0.0909541 -1.1916662 -0.18804787 1.7422303 -0.72435975
1.8107857 1.3629818 2.3275716 0.17120764 -0.19963329 -0.6376692 -0.40942284 0.1597604
00000000: cdeb e33e 1a6b 3fbf f9e4 9d3f 2ba7 9b3c
00000010: 53b3 c53f 3175 193f de04 9abe e529 013f
00000020: 6468 693f f368 e0be 1b10 9b40 f001 d93d
00000030: 827e f53f 6ddb 923d f42c dcbe d7d3 50bf
00000040: 2bb9 81be 6481 6fbf a17f 25bf a935 debe
00000050: 99f6 b83d 13c3 eb3f ce51 9040 106d 393e
00000060: ff22 cb40 65a2 2240 853a 18bf 73a7 56bf
00000070: 6ae1 67bf 9a58 aa40 bb10 a93f 1863 8ebf
00000080: c261 6fbf 358e a63f 907a f33f ee93 a23e
00000090: 34ef 963e b04f 0f40 5032 4a40 4969 6bbf
000000a0: 03a9 ef3f 8dfc ee3f 31ac a53f 20b7 1540
000000b0: c646 8d40 217b 2b3f 4572 65bf 4e48 de3e
000000c0: 8db7 693f 3632 a73f 1195 2b3f e276 9a40
000000d0: 3427 663c 305d dc3c ea64 963f e2b5 02bf
000000e0: 5912 43bf 1574 b6be 6eb4 11be 831c f0be
000000f0: 949f f53f 0766 9240 4ca4 913e 0b9e 42be
00000100: 7c53 dbbe 5e43 4f3f 5a58 983e 4291 fa3e
00000110: ef93 1640 fa22 b3be 0607 aebe d87e 733f
00000120: c6c3 ac3f d34b 693e dfd0 17bf 6124 9e3f
00000130: c197 ab40 2b81 9dbd e1d4 db3e a6a4 3a3e
00000140: 7ed2 a33e 6f04 a2bc ce73 553c cf03 b73e
00000150: 60d7 543e 04c8 3f40 1061 fe3f 2c0d 8f40
00000160: 4e7b f43f 16ed 253d 6e6c 31bf 0cef 1cbf
00000170: b900 ac3d d730 f240 e1ac 0cbf c524 acbe
00000180: 9149 a73f 711b f6bd 3acc b53e 6041 9b40
00000190: c598 f2be 6fe4 ab3f 1a88 dd40 93c2 2340
000001a0: 3d96 42be 7701 b6be 7cca dbbe 70e6 11bf
000001b0: f369 e5bf e43c 873d 33fc a43e 41e8 2f40
000001c0: bf02 163e 5c73 9c3f 9a0b ba3f fe90 40bf
000001d0: 217f 3c3d e9ba 5040 d0bb 503f aaef 8ebf
000001e0: 17d3 a53f a424 5240 6887 2cbf 26c6 b83f
000001f0: 97aa a53f 187b 8340 91ca 073f 8dfb 1740
00000200: cfb7 b93d d0f0 d9bd a527 6f3f 926f 973f
00000210: 5bd4 ce3f 8758 c140 6110 fbbd 4f1c 2b40
00000220: b5ac a73f 680b ec3e 9e61 7dbd 87fc bf3f
00000230: eb9e 8040 1e18 1740 79c8 1abf 4b5e b03f
00000240: 32d6 e93f 243f 2740 e6d4 3340 fb00 d43f
00000250: 176c 2cbf 2c27 af3f 277f 2e3f 5b49 ab3e
00000260: 9aab 393f 27c0 a83f a1f4 073e ec1e 8640
00000270: 5b7f ce3f f856 1e40 179a 2ebf 49b5 f640
00000280: c114 98bd 748e 8cbe 1bfe 6740 bfef 3ebf
00000290: afe0 733e 204a 1dbe 0868 9c3e 3d50 68bf
000002a0: dc22 b03f 2ca9 9840 7de6 45bf 5c6b f43f
000002b0: ddd6 9b40 11a9 aa40 33a9 fabe 7aa2 b6bd
000002c0: d5c3 e9be f76f f73f 3b25 80bf 20ae 083e
000002d0: e59b 98bf e344 103e af6c 683e ec3d 4e3e
000002e0: fd86 913f b93a 9c3f aa87 c13f a5f0 023e
000002f0: 0b87 2e3c 6657 8bbf b3df 5f40 ccee 14bd
00000300: 9718 f3bf 4589 8740 87ca 1f40 5f41 df3e
00000310: ec5c c83f c35a 4f3f a32e 81bf 586b 6f3f
00000320: 7359 fa3f d5c8 4140 2f9a 0540 5d81 24bf
00000330: 2b26 e43f cb8e 1c40 07dc febe 2152 5abe
00000340: 72cf 22bf f067 fe3f ce5f e93f 038a 8c40
00000350: 65d4 563d d277 e93e 7972 20be f1b6 f9bf
00000360: 4690 dabd 220f 8d40 5e1e 5cbf 9040 56bf
00000370: eacf 1c40 4b22 1abf b8ae 5abf 0fc9 4240
00000380: 6e63 a7be a4fc 503e ca4e 1f40 02fd 1140
00000390: 7869 88bf 6867 e93f 828b ec3f 8840 66bf
000003a0: 9d78 6c3f b67e 0a40 f4e5 1d40 6371 f03f
000003b0: eede c540 7ba2 6a3f fa44 273f a7c0 1f40
000003c0: a3a8 cebe 7200 1c3e e7d8 633e 2546 babd
000003d0: 8588 98bf 9f8f 40be 6701 df3f a46f 39bf
000003e0: d3c7 e73f 3076 ae3f eff6 1440 0e51 2f3e
000003f0: ab6c 4cbe 4a3e 23bf df9f d1be 3b98 233e

l1.bias f4 [8]
0.0885048 0.16391963 0.18425766 -0.16795558 0.1985955 0.5115741 0.27886236 0.16188537
00000000: 0142 b53d 8cda 273e 0aae 3c3e 8cfc 2bbe
00000010: 9e5c 4b3e 85f6 023f 0cc7 8e3e 47c5 253e

l2.weight f4 [8, 8]
0.23937412 -1.3115896 -2.209151 0.7082324 0.65544134 1.3753052 -2.7927685 0.007018006
1.315697 -1.2850605 0.14995398 0.38876972 0.9442193 -0.92679876 -0.79082245 0.09203552
-1.0695876 2.2926795 -1.3826715 0.227028 -0.041887898 1.7712939 1.3204874 -0.50740653
0.8179054 0.31661633 -0.47296372 0.16359518 -1.0794418 -3.2159286 0.6559348 0.73134035
1.2991852 -0.042709127 -1.2159171 1.808946 -0.2664858 -1.8984009 1.0627007 -1.1408888
-0.3057564 1.8612039 0.04630613 -0.353206 -1.033833 0.9226261 -1.0310751 1.6718144
-0.36361542 -0.4016837 0.7510915 -1.8817087 1.2464395 0.109585665 -1.4701128 1.0961632
-1.4766518 -0.82478136 -1.0876946 -0.3278052 1.794601 -0.009345397 1.5860944 0.55982864
00000000: 7d1e 753e 2be2 a7bf bb62 0dc0 b84e 353f
00000010: 01cb 273f 000a b03f b8bc 32c0 4df7 e53b
00000020: c268 a83f dd7c a4bf 898d 193e d30c c73e
00000030: 5bb8 713f af42 6dbf 5773 4abf 1e7d bc3d
00000040: 3fe8 88bf 43bb 1240 61fb b0bf 077a 683e
00000050: a592 2bbd c2b9 e23f bb05 a93f 65e5 01bf
00000060: 4062 513f 891b a23e 4d28 f2be 7f85 273e
00000070: 262b 8abf c6d1 4dc0 58eb 273f 1f39 3b3f
00000080: b34b a63f c4ef 2ebd 2ca3 9bbf 8b8b e73f
00000090: d470 88be cdfe f2bf 9406 883f a508 92bf
000000a0: 1a8c 9cbe ee3b ee3f 7fab 3d3d 6bd7 b4be
000000b0: a454 84bf 3931 6c3f 45fa 83bf 04fe d53f
000000c0: cd2b babe 7ca9 cdbe 8847 403f d5db f0bf
000000d0: 548b 9f3f 736e e03d a82c bcbf 134f 8c3f
000000e0: ed02 bdbf df24 53bf 9439 8bbf 15d6 a7be
000000f0: 7cb5 e53f 701d 19bc 2405 cb3f ee50 0f3f

l2.bias f4 [8]
0.3237835 -0.16923021 0.26286897 0.035530318 -0.7084291 0.17384121 -0.5395797 0.5629523
00000000: f3c6 a53e af4a 2dbe c396 863e 3d88 113d
00000010: 9c5b 35bf 6e03 323e e521 0abf a41d 103f

l3.weight f4 [98, 8]
-7.563338 -7.2310047 -4.461553 1.9137077 -4.703175 0.47003454 -3.2066112 -4.189331
-8.837933 -4.2511497 0.47785145 -2.3308797 -3.6049898 1.0596126 -6.1106653 -5.289018
-7.47916 -2.7833648 -2.4022152 -9.0548725 0.27303073 -9.694989 -2.53231 0.70195216
1.7272856 -2.244681 -5.0373063 -7.6631346 -0.5847293 -5.4564085 -8.436934 -2.0514457
-7.652258 -1.3087448 -5.796776 -1.041475 0.98238045 -3.4042692 -10.48579 -2.487536
0.046115175 -2.0024981 -7.5632563 1.1230831 -3.6540225 -10.22922 -0.71245587 -0.19643798
-7.4672985 -4.8817334 1.5107188 -6.070896 -2.665732 0.11036776 -4.5775537 -2.5130303
2.650791 -9.353127 -2.6971061 0.7781836 -7.2533493 -1.6784257 -4.46546 -2.522531
2.684495 -5.1392503 0.6702839 -4.4816175 -1.5764416 -1.6244755 -5.114425 -9.519174
1.7788558 -9.122599 1.0343156 -3.3644555 -4.0298686 -2.0184414 -1.9781281 -8.2116785
-7.74676 -14.275284 0.08751191 -24.740274 -15.265695 -4.1359367 0.33665273 0.6576039
-7.1857123 -14.1989765 0.11285778 -23.994774 -14.662586 -3.7836971 0.22518207 0.5191555
2.0248733 -3.5098295 -2.4537714 -4.241524 -8.758279 -8.121573 -1.6754112 -3.1713421
-8.11957 -8.207381 1.2566271 -1.8017567 -0.92510945 -0.2521588 -5.610325 -4.7750363
-5.829818 -4.942969 1.3429437 -5.174669 -0.40581682 -1.7322947 -5.5608745 -3.6739812
-1.7869567 -7.3462315 0.9096512 -8.225691 -1.5757464 -0.86389214 -8.316084 -2.663604
-4.527808 -13.766555 -0.27292615 0.3295002 -0.24277306 0.9937755 -6.179222 -6.653532
-6.36807 -1.3506422 -7.3726993 1.8052118 -0.6879658 -3.8514698 -1.1207565 -1.2052648
-6.5349298 -10.425453 -0.85724616 3.6886477 -3.9242165 -1.3409039 -0.7340578 -1.601484
-12.586375 0.19358118 -19.589348 -6.0924354 0.030118752 -23.859642 -3.4017568 0.521306
-12.655955 0.25584593 -19.545406 -6.126761 0.019265436 -23.873766 -3.3776393 0.5569323
-3.1353226 -6.5691814 -3.2246108 3.674844 -8.861296 -1.0393375 -0.19735305 -6.5328755
1.5227412 -7.16934 -1.6203672 -4.8209057 -4.1958766 -3.0136902 0.01890251 -5.029076
-8.908592 -2.9198134 -0.27843058 -9.126062 0.99179983 -6.535766 -8.700651 -3.083132
-3.5838718 -13.116867 0.537747 2.1481736 -7.530111 -0.35442376 -4.624652 -2.5163229
3.4390996 -8.612506 0.42497647 -5.1466184 -5.899038 -8.271901 -9.295918 -3.3063653
1.6143286 -4.5494623 -0.6153945 -7.261712 -0.70133334 -3.0100217 -7.9674244 -3.4866974
3.4072373 -2.1432629 -3.7080963 -3.9282806 -0.005693706 -5.577973 -11.863318 -5.4067526
-11.480017 -2.3107135 -0.11539914 -0.24727254 -1.0713995 -0.28820246 -1.1300756 -0.074338436
-11.71319 -2.0053315 -0.0847922 -0.26629025 -1.3155624 -0.09937328 -1.1664304 0.18039544
-4.9683695 -9.451346 -0.11876994 -4.233355 1.0046691 -3.2327824 -7.9067783 -1.3092083
1.7677244 -7.7727413 -2.2390938 1.5405344 -4.272071 -1.0748754 1.1006691 -10.481479
00000000: dd06 f2c0 6464 e7c0 0bc5 8ec0 60f4 f43f
00000010: 6980 96c0 5ea8 f03e 1e39 4dc0 000f 86c0
00000020: 2c68 0dc1 6b09 88c0 f2a8 f43e 222d 15c0
00000030: 27b8 66c0 63a1 873f 928a c3c0 a33f a9c0
00000040: 4755 efc0 a622 32c0 e5bd 19c0 c2e0 10c1
00000050: afca 8b3e ad1e 1bc1 5e11 22c0 23b3 333f
00000060: b217 dd3f daa8 0fc0 9d31 a1c0 6638 f5c0
00000070: d2b0 15bf e69a aec0 affd 06c1 e34a 03c0
00000080: 4cdf f4c0 f384 a7bf 307f b9c0 0e4f 85bf
00000090: 497d 7b3f 8cdf 59c0 ccc5 27c1 ca33 1fc0
000000a0: 44e3 3c3d ee28 00c0 3206 f2c0 30c1 8f3f
000000b0: 81db 69c0 e3aa 23c1 8263 36bf 0a27 49be
000000c0: 1cf4 eec0 2937 9cc0 3c5f c13f c844 c2c0
000000d0: 5a9b 2ac0 7e08 e23d 527b 92c0 7dd5 20c0
000000e0: 8fa6 2940 68a6 15c1 639d 2cc0 0a37 473f
000000f0: 701b e8c0 a7d6 d6bf 0ce5 8ec0 2671 21c0
00000100: c4ce 2b40 bd74 a4c0 ba97 2b3f 6969 8fc0
00000110: d7c8 c9bf d0ee cfbf 5fa9 a3c0 894e 18c1
00000120: 8cb1 e33f 2af6 11c1 7464 843f 3d53 57c0
00000130: aff4 80c0 252e 01c0 4d33 fdbf 0963 03c1
00000140: 75e5 f7c0 9067 64c1 7239 b33d 15ec c5c1
00000150: 4940 74c1 9859 84c0 bf5d ac3e bb58 283f
00000160: 5bf1 e5c0 022f 63c1 fb21 e73d 4cf5 bfc1
00000170: f499 6ac1 1828 72c0 2196 663e 60e7 043f
00000180: 8697 0140 0ca1 60c0 970a 1dc0 91ba 87c0
00000190: e921 0cc1 f7f1 01c1 e073 d6bf 45f7 4ac0
000001a0: c2e9 01c1 6f51 03c1 28d9 a03f f79f e6bf
000001b0: f9d3 6cbf f51a 81be c887 b3c0 19cd 98c0
000001c0: de8d bac0 cd2c 9ec0 94e5 ab3f e396 a5c0
000001d0: 39c7 cfbe d5bb ddbf aff2 b1c0 8222 6bc0
000001e0: ffba e4bf 5414 ebc0 e7de 683f 6e9c 03c1
000001f0: 0fb2 c9bf 0928 5dbf ae0e 05c1 7d78 2ac0
00000200: cee3 90c0 cf43 5cc1 fabc 8bbe 40b4 a83e
00000210: 8099 78be 1268 7e3f 30bc c5c0 bce9 d4c0
00000220: 3bc7 cbc0 d8e1 acbf 27ed ebc0 2e11 e73f
00000230: 871e 30bf 7b7e 76c0 f374 8fbf 1e46 9abf
00000240: 251e d1c0 a8ce 26c1 7c74 5bbf ce12 6c40
00000250: 5d26 7bc0 bda2 abbf 36eb 3bbf 6dfd ccbf
00000260: cb61 49c1 253a 463e fcb6 9cc1 3bf5 c2c0
00000270: 9abb f63c 8ce0 bec1 62b6 59c0 4f74 053f
00000280: cb7e 4ac1 3dfe 823e fe5c 9cc1 6d0e c4c0
00000290: 8cd2 9d3c 79fd bec1 3e2b 58c0 1d93 0e3f
000002a0: 20a9 48c0 bc36 d2c0 0660 4ec0 a530 6b40
000002b0: dec7 0dc1 0309 85bf eb16 4abe 510d d1c0
000002c0: 2fe9 c23f 3c6b e5c0 3168 cfbf dc44 9ac0
000002d0: 9f44 86c0 4de0 40c0 70d9 9a3c 31ee a0c0
000002e0: 9889 0ec1 39de 3ac0 748e 8ebe 5a04 12c1
000002f0: 98e6 7d3f ff24 d1c0 de35 0bc1 0952 45c0
00000300: 285e 65c0 b0de 51c1 caa9 093f ad7b 0940
00000310: abf6 f0c0 0877 b5be 26fd 93c0 6f0b 21c0
00000320: 351a 5c40 d3cc 09c1 8496 d93e 19b1 a4c0
00000330: ebc4 bcc0 b559 04c1 15bc 14c1 7d9b 53c0
00000340: 52a2 ce3f 3295 91c0 7e8a 1dbf f25f e8c0
00000350: 958a 33bf 32a4 40c0 24f5 fec0 0d26 5fc0
00000360: 2d10 5a40 382b 09c0 7351 6dc0 f368 7bc0
00000370: 4592 babb c17e b2c0 27d0 3dc1 1e04 adc0
00000380: 26ae 37c1 bbe2 13c0 6256 ecbd 0335 7dbe
00000390: 9e23 89bf 468f 93be 51a6 90bf c03e 98bd
000003a0: 3a69 3bc1 5a57 00c0 88a7 adbd 3257 88be
000003b0: 5964 a8bf 3884 cbbd 974d 95bf 95b9 383e
000003c0: e2fc 9ec0 b738 17c1 a83d f3bd a577 87c0
000003d0: ff98 803f e8e5 4ec0 5404 fdc0 2394 a7bf
000003e0: cb44 e23f 4cba f8c0 504d 0fc0 3b30 c53f
000003f0: ceb4 88c0 8495 89bf bae2 8c3f 23b4 27c1

l3.bias f4 [98]
-7.9926476 -6.520761 -15.266647 -7.4555035 -7.9799232 -12.314817 -6.628696 -5.545849
-7.5477095 -5.366799 0.6515328 0.05101914 -5.546073 -4.2760367 -2.9239056 -5.128925
-6.895129 -9.602105 -6.013751 0.0959833 -0.13095991 -7.1799526 -6.5874906 -3.8212755
-4.4036374 -0.30462685 -3.487674 -5.505727 -0.85681534 -0.60993075 -6.117591 -10.065884
-2.7855747 -2.261759 -6.284191 -6.2807174 -8.965854 -7.8834677 -8.056238 -6.5434494
-10.316021 -8.063449 -15.037791 -6.329646 -8.991443 -6.578968 -5.7175975 -6.606989
-7.063891 -4.9536247 -9.795279 -12.8452425 -7.8610687 0.21517502 0.22337641 -8.037936
-6.620498 -5.400461 -10.630689 -0.14050417 -0.20433919 -8.152661 -3.7220364 -0.53119594
-0.69531155 -9.627127 0.016530007 0.121317975 -5.614382 1.9390174 -8.016248 -9.692332
-10.357602 -6.55349 -0.3082437 -2.2572458 -0.121804155 -9.351401 -7.293476 -9.070735
-6.7699003 -11.198943 -11.905447 -10.206031 -7.2676525 -8.485367 -8.295087 -10.292833
-6.010242 -9.276419 -5.963506 -8.455422 -5.7297106 -8.192963 -2.8049352 -2.4599817
-7.2500367 -12.220626
00000000: c5c3 ffc0 13aa d0c0 3044 74c1 7c93 eec0
00000010: 885b ffc0 7e09 45c1 471e d4c0 9877 b1c0
00000020: d686 f1c0 d1bc abc0 dbca 263f 72f9 503d
00000030: 6e79 b1c0 4bd5 88c0 4521 3bc0 2720 a4c0
00000040: e6a4 dcc0 39a2 19c1 a670 c0c0 e492 c43d
00000050: 5b1a 06be 2cc2 e5c0 b9cc d2c0 c78f 74c0
00000060: 99ea 8cc0 0df8 9bbe 0d36 5fc0 ea2e b0c0
00000070: 4058 5bbf 6c24 1cbf 4ec3 c3c0 dc0d 21c1
00000080: db46 32c0 a9c0 10c0 1818 c9c0 a3fb c8c0
00000090: 2374 0fc1 5e45 fcc0 5ae6 00c1 f063 d1c0
000000a0: 6c0e 25c1 e303 01c1 cb9a 70c1 768c cac0
000000b0: f3dc 0fc1 e886 d2c0 8ff6 b6c0 746c d3c0
000000c0: 650b e2c0 1884 9ec0 76b9 1cc1 1d86 4dc1
000000d0: e08d fbc0 d756 5c3e c9bc 643e 639b 00c1
000000e0: 1fdb d3c0 94d0 acc0 4d17 2ac1 53e0 0fbe
000000f0: 4b3e 51be 4d71 02c1 d835 6ec0 75fc 07bf
00000100: f0ff 31bf b608 1ac1 f069 873c 8f75 f83d
00000110: 04a9 b3c0 b931 f83f 8d42 00c1 cb13 1bc1
00000120: bdb8 25c1 31b6 d1c0 1ed2 9dbe b776 10c0
00000130: 7574 f9bd 579f 15c1 2864 e9c0 bb21 11c1
00000140: 06a3 d8c0 df2e 33c1 b67c 3ec1 e74b 23c1
00000150: 9c90 e8c0 10c4 07c1 adb8 04c1 72af 24c1
00000160: e753 c0c0 366c 14c1 0bd5 bec0 6949 07c1
00000170: ca59 b7c0 6016 03c1 0f84 33c0 5770 1dc0
00000180: 4d00 e8c0 af87 43c1
